…
Model vit_small 16x16 built.
Model vit_base 16x16 built.
-----------------------------------------------------------------------------------------------
------------------------------------- Model 15 --------------------------------------------------
-----------------------------------------------------------------------------------------------
Weights: /home/axelle/Documents/Doctorat/WP1/WP1/weights_folder/phikon/model26/placeholder.txt
Indexing
Model vit_small 16x16 built.
Model vit_base 16x16 built.
ViTModel(
  (embeddings): ViTEmbeddings(
    (patch_embeddings): ViTPatchEmbeddings(
      (projection): Conv2d(3, 768, kernel_size=(16, 16), stride=(16, 16))
    )
    (dropout): Dropout(p=0.0, inplace=False)
  )
  (encoder): ViTEncoder(
    (layer): ModuleList(
      (0-11): 12 x ViTLayer(
        (attention): ViTSdpaAttention(
          (attention): ViTSdpaSelfAttention(
            (query): Linear(in_features=768, out_features=768, bias=True)
            (key): Linear(in_features=768, out_features=768, bias=True)
            (value): Linear(in_features=768, out_features=768, bias=True)
            (dropout): Dropout(p=0.0, inplace=False)
          )
          (output): ViTSelfOutput(
            (dense): Linear(in_features=768, out_features=768, bias=True)
            (dropout): Dropout(p=0.0, inplace=False)
          )
        )
        (intermediate): ViTIntermediate(
          (dense): Linear(in_features=768, out_features=3072, bias=True)
          (intermediate_act_fn): GELUActivation()
        )
        (output): ViTOutput(
          (dense): Linear(in_features=3072, out_features=768, bias=True)
          (dropout): Dropout(p=0.0, inplace=False)
        )
        (layernorm_before): LayerNorm((768,), eps=1e-06, elementwise_affine=True)
        (layernorm_after): LayerNorm((768,), eps=1e-06, elementwise_affine=True)
      )
    )
  )
  (layernorm): LayerNorm((768,), eps=1e-06, elementwise_affine=True)
)
all
Model vit_small 16x16 built.
Model vit_base 16x16 built.
ViTModel(
  (embeddings): ViTEmbeddings(
    (patch_embeddings): ViTPatchEmbeddings(
      (projection): Conv2d(3, 768, kernel_size=(16, 16), stride=(16, 16))
    )
    (dropout): Dropout(p=0.0, inplace=False)
  )
  (encoder): ViTEncoder(
    (layer): ModuleList(
      (0-11): 12 x ViTLayer(
        (attention): ViTSdpaAttention(
          (attention): ViTSdpaSelfAttention(
            (query): Linear(in_features=768, out_features=768, bias=True)
            (key): Linear(in_features=768, out_features=768, bias=True)
            (value): Linear(in_features=768, out_features=768, bias=True)
            (dropout): Dropout(p=0.0, inplace=False)
          )
          (output): ViTSelfOutput(
            (dense): Linear(in_features=768, out_features=768, bias=True)
            (dropout): Dropout(p=0.0, inplace=False)
          )
        )
        (intermediate): ViTIntermediate(
          (dense): Linear(in_features=768, out_features=3072, bias=True)
          (intermediate_act_fn): GELUActivation()
        )
        (output): ViTOutput(
          (dense): Linear(in_features=3072, out_features=768, bias=True)
          (dropout): Dropout(p=0.0, inplace=False)
        )
        (layernorm_before): LayerNorm((768,), eps=1e-06, elementwise_affine=True)
        (layernorm_after): LayerNorm((768,), eps=1e-06, elementwise_affine=True)
      )
    )
  )
  (layernorm): LayerNorm((768,), eps=1e-06, elementwise_affine=True)
)
-----------------------------------------------------------------------------------------------
------------------------------------- Model 15 --------------------------------------------------
-----------------------------------------------------------------------------------------------
Weights: /home/axelle/Documents/Doctorat/WP1/WP1/weights_folder/phikon/model26/placeholder.txt
…
